…
    "# 1350\n",
    "# 1350\n",
    "# 150\n",
    "# 150"
   ]
  },
  {
   "cell_type": "code",
   "execution_count": 14,
   "metadata": {
    "colab": {},
    "colab_type": "code",
    "id": "-BQrav4anTmj"
   },
   "outputs": [
    {
     "name": "stdout",
     "output_type": "stream",
     "text": [
      "Model: \"sequential_2\"\n",
      "_________________________________________________________________\n",
      "Layer (type)                 Output Shape              Param #   \n",
      "=================================================================\n",
      "conv2d (Conv2D)              (None, 148, 148, 16)      448       \n",
      "_________________________________________________________________\n",
      "max_pooling2d (MaxPooling2D) (None, 74, 74, 16)        0         \n",
      "_________________________________________________________________\n",
      "conv2d_1 (Conv2D)            (None, 72, 72, 32)        4640      \n",
      "_________________________________________________________________\n",
      "max_pooling2d_1 (MaxPooling2 (None, 36, 36, 32)        0         \n",
      "_________________________________________________________________\n",
      "conv2d_2 (Conv2D)            (None, 34, 34, 64)        18496     \n",
      "_________________________________________________________________\n",
      "max_pooling2d_2 (MaxPooling2 (None, 17, 17, 64)        0         \n",
      "_________________________________________________________________\n",
      "flatten (Flatten)            (None, 18496)             0         \n",
      "_________________________________________________________________\n",
      "dense (Dense)                (None, 512)               9470464   \n",
      "_________________________________________________________________\n",
      "dense_1 (Dense)              (None, 1)                 513       \n",
      "=================================================================\n",
      "Total params: 9,494,561\n",
      "Trainable params: 9,494,561\n",
      "Non-trainable params: 0\n",
      "_________________________________________________________________\n"
     ]
    }
   ],
   "source": [
    "# DEFINE A KERAS MODEL TO CLASSIFY CATS V DOGS\n",
    "# USE AT LEAST 3 CONVOLUTION LAYERS\n",
    "model = tf.keras.models.Sequential([\n",
    "\n",
    "#additing the 1st convolution layers\n",
    "tf.keras.layers.Conv2D(16,(3,3) ,activation='relu',input_shape=(150,150,3)), \n",
    "tf.keras.layers.MaxPool2D(2,2),   \n",
    "#addition the 2nd convolution layers\n",
    "tf.keras.layers.Conv2D(32,(3,3) , activation='relu'),\n",
    "tf.keras.layers.MaxPool2D(2,2),\n",
    "#addition the 3rd convolution layers\n",
    "tf.keras.layers.Conv2D(64,(3,3),activation='relu'),\n",
    "tf.keras.layers.MaxPool2D(2,2),\n",
    "tf.keras.layers.Flatten(),\n",
    "tf.keras.layers.Dense(512,activation='relu'),\n",
    "tf.keras.layers.Dense(1, activation='sigmoid'),                               \n",
    "# YOUR CODE HERE\n",
…
